tests/regression/solid_mechanics/km_flow/full_model/gold/result.pt (torch, 613866 bytes, 13 tensors)

forces/E f8 [100, 20, 6]
0.0 0.0 0.0 0.0 0.0 0.0 0.0 0.0
0.0 0.0 0.0 0.0 0.0 0.0 0.0 0.0
0.0 0.0 0.0 0.0 0.0 0.0 0.0 0.0
0.0 0.0 0.0 0.0 0.0 0.0 0.0 0.0
0.0 0.0 0.0 0.0 0.0 0.0 0.0 0.0
0.0 0.0 0.0 0.0 0.0 0.0 0.0 0.0
0.0 0.0 0.0 0.0 0.0 0.0 0.0 0.0
0.0 0.0 0.0 0.0 0.0 0.0 0.0 0.0
0.0 0.0 0.0 0.0 0.0 0.0 0.0 0.0
0.0 0.0 0.0 0.0 0.0 0.0 0.0 0.0
0.0 0.0 0.0 0.0 0.0 0.0 0.0 0.0
0.0 0.0 0.0 0.0 0.0 0.0 0.0 0.0
0.0 0.0 0.0 0.0 0.0 0.0 0.0 0.0
0.0 0.0 0.0 0.0 0.0 0.0 0.0 0.0
0.0 0.0 0.0 0.0 0.0 0.0 0.0 0.0
0.0010101010101010103 -0.0005050505050505052 -0.0005050505050505052 0.0 0.0 0.0 0.0010101010101010103 -0.0005050505050505052
-0.0005050505050505052 0.0 0.0 0.0 0.0010101010101010103 -0.0005050505050505052 -0.0005050505050505052 0.0
0.0 0.0 0.0010101010101010103 -0.0005050505050505052 -0.0005050505050505052 0.0 0.0 0.0
0.0010101010101010103 -0.0005050505050505052 -0.0005050505050505052 0.0 0.0 0.0 0.0010101010101010103 -0.0005050505050505052
-0.0005050505050505052 0.0 0.0 0.0 0.0010101010101010103 -0.0005050505050505052 -0.0005050505050505052 0.0
0.0 0.0 0.0010101010101010103 -0.0005050505050505052 -0.0005050505050505052 0.0 0.0 0.0
0.0010101010101010103 -0.0005050505050505052 -0.0005050505050505052 0.0 0.0 0.0 0.0010101010101010103 -0.0005050505050505052
-0.0005050505050505052 0.0 0.0 0.0 0.0010101010101010103 -0.0005050505050505052 -0.0005050505050505052 0.0
0.0 0.0 0.0010101010101010103 -0.0005050505050505052 -0.0005050505050505052 0.0 0.0 0.0
0.0010101010101010103 -0.0005050505050505052 -0.0005050505050505052 0.0 0.0 0.0 0.0010101010101010103 -0.0005050505050505052
-0.0005050505050505052 0.0 0.0 0.0 0.0010101010101010103 -0.0005050505050505052 -0.0005050505050505052 0.0
0.0 0.0 0.0010101010101010103 -0.0005050505050505052 -0.0005050505050505052 0.0 0.0 0.0
0.0010101010101010103 -0.0005050505050505052 -0.0005050505050505052 0.0 0.0 0.0 0.0010101010101010103 -0.0005050505050505052
-0.0005050505050505052 0.0 0.0 0.0 0.0010101010101010103 -0.0005050505050505052 -0.0005050505050505052 0.0
0.0 0.0 0.0010101010101010103 -0.0005050505050505052 -0.0005050505050505052 0.0 0.0 0.0
0.0020202020202020206 -0.0010101010101010103 -0.0010101010101010103 0.0 0.0 0.0 0.0020202020202020206 -0.0010101010101010103
-0.0010101010101010103 0.0 0.0 0.0 0.0020202020202020206 -0.0010101010101010103 -0.0010101010101010103 0.0
00000000: 0000 0000 0000 0000 0000 0000 0000 0000
00000010: 0000 0000 0000 0000 0000 0000 0000 0000
00000020: 0000 0000 0000 0000 0000 0000 0000 0000
00000030: 0000 0000 0000 0000 0000 0000 0000 0000
00000040: 0000 0000 0000 0000 0000 0000 0000 0000
00000050: 0000 0000 0000 0000 0000 0000 0000 0000
00000060: 0000 0000 0000 0000 0000 0000 0000 0000
00000070: 0000 0000 0000 0000 0000 0000 0000 0000
00000080: 0000 0000 0000 0000 0000 0000 0000 0000
00000090: 0000 0000 0000 0000 0000 0000 0000 0000
000000a0: 0000 0000 0000 0000 0000 0000 0000 0000
000000b0: 0000 0000 0000 0000 0000 0000 0000 0000
000000c0: 0000 0000 0000 0000 0000 0000 0000 0000
000000d0: 0000 0000 0000 0000 0000 0000 0000 0000
000000e0: 0000 0000 0000 0000 0000 0000 0000 0000
000000f0: 0000 0000 0000 0000 0000 0000 0000 0000
00000100: 0000 0000 0000 0000 0000 0000 0000 0000
00000110: 0000 0000 0000 0000 0000 0000 0000 0000
00000120: 0000 0000 0000 0000 0000 0000 0000 0000
00000130: 0000 0000 0000 0000 0000 0000 0000 0000
00000140: 0000 0000 0000 0000 0000 0000 0000 0000
00000150: 0000 0000 0000 0000 0000 0000 0000 0000
00000160: 0000 0000 0000 0000 0000 0000 0000 0000
00000170: 0000 0000 0000 0000 0000 0000 0000 0000
00000180: 0000 0000 0000 0000 0000 0000 0000 0000
00000190: 0000 0000 0000 0000 0000 0000 0000 0000
000001a0: 0000 0000 0000 0000 0000 0000 0000 0000
000001b0: 0000 0000 0000 0000 0000 0000 0000 0000
000001c0: 0000 0000 0000 0000 0000 0000 0000 0000
000001d0: 0000 0000 0000 0000 0000 0000 0000 0000
000001e0: 0000 0000 0000 0000 0000 0000 0000 0000
000001f0: 0000 0000 0000 0000 0000 0000 0000 0000
00000200: 0000 0000 0000 0000 0000 0000 0000 0000
00000210: 0000 0000 0000 0000 0000 0000 0000 0000
00000220: 0000 0000 0000 0000 0000 0000 0000 0000
00000230: 0000 0000 0000 0000 0000 0000 0000 0000
00000240: 0000 0000 0000 0000 0000 0000 0000 0000
00000250: 0000 0000 0000 0000 0000 0000 0000 0000
00000260: 0000 0000 0000 0000 0000 0000 0000 0000
00000270: 0000 0000 0000 0000 0000 0000 0000 0000
00000280: 0000 0000 0000 0000 0000 0000 0000 0000
00000290: 0000 0000 0000 0000 0000 0000 0000 0000
000002a0: 0000 0000 0000 0000 0000 0000 0000 0000
000002b0: 0000 0000 0000 0000 0000 0000 0000 0000
000002c0: 0000 0000 0000 0000 0000 0000 0000 0000
000002d0: 0000 0000 0000 0000 0000 0000 0000 0000
000002e0: 0000 0000 0000 0000 0000 0000 0000 0000
000002f0: 0000 0000 0000 0000 0000 0000 0000 0000
00000300: 0000 0000 0000 0000 0000 0000 0000 0000
00000310: 0000 0000 0000 0000 0000 0000 0000 0000
00000320: 0000 0000 0000 0000 0000 0000 0000 0000
00000330: 0000 0000 0000 0000 0000 0000 0000 0000
00000340: 0000 0000 0000 0000 0000 0000 0000 0000
00000350: 0000 0000 0000 0000 0000 0000 0000 0000
00000360: 0000 0000 0000 0000 0000 0000 0000 0000
00000370: 0000 0000 0000 0000 0000 0000 0000 0000
00000380: 0000 0000 0000 0000 0000 0000 0000 0000
00000390: 0000 0000 0000 0000 0000 0000 0000 0000
000003a0: 0000 0000 0000 0000 0000 0000 0000 0000
000003b0: 0000 0000 0000 0000 0000 0000 0000 0000
000003c0: e365 75b3 ab8c 503f e365 75b3 ab8c 40bf
000003d0: e365 75b3 ab8c 40bf 0000 0000 0000 0000
000003e0: 0000 0000 0000 0000 0000 0000 0000 0000
000003f0: e365 75b3 ab8c 503f e365 75b3 ab8c 40bf
00000400: e365 75b3 ab8c 40bf 0000 0000 0000 0000
00000410: 0000 0000 0000 0000 0000 0000 0000 0000
00000420: e365 75b3 ab8c 503f e365 75b3 ab8c 40bf
00000430: e365 75b3 ab8c 40bf 0000 0000 0000 0000
00000440: 0000 0000 0000 0000 0000 0000 0000 0000
00000450: e365 75b3 ab8c 503f e365 75b3 ab8c 40bf
00000460: e365 75b3 ab8c 40bf 0000 0000 0000 0000
00000470: 0000 0000 0000 0000 0000 0000 0000 0000
00000480: e365 75b3 ab8c 503f e365 75b3 ab8c 40bf
00000490: e365 75b3 ab8c 40bf 0000 0000 0000 0000
000004a0: 0000 0000 0000 0000 0000 0000 0000 0000
000004b0: e365 75b3 ab8c 503f e365 75b3 ab8c 40bf
000004c0: e365 75b3 ab8c 40bf 0000 0000 0000 0000
000004d0: 0000 0000 0000 0000 0000 0000 0000 0000
000004e0: e365 75b3 ab8c 503f e365 75b3 ab8c 40bf
000004f0: e365 75b3 ab8c 40bf 0000 0000 0000 0000
00000500: 0000 0000 0000 0000 0000 0000 0000 0000
00000510: e365 75b3 ab8c 503f e365 75b3 ab8c 40bf
00000520: e365 75b3 ab8c 40bf 0000 0000 0000 0000
00000530: 0000 0000 0000 0000 0000 0000 0000 0000
00000540: e365 75b3 ab8c 503f e365 75b3 ab8c 40bf
00000550: e365 75b3 ab8c 40bf 0000 0000 0000 0000
00000560: 0000 0000 0000 0000 0000 0000 0000 0000
00000570: e365 75b3 ab8c 503f e365 75b3 ab8c 40bf
00000580: e365 75b3 ab8c 40bf 0000 0000 0000 0000
00000590: 0000 0000 0000 0000 0000 0000 0000 0000
000005a0: e365 75b3 ab8c 503f e365 75b3 ab8c 40bf
000005b0: e365 75b3 ab8c 40bf 0000 0000 0000 0000
000005c0: 0000 0000 0000 0000 0000 0000 0000 0000
000005d0: e365 75b3 ab8c 503f e365 75b3 ab8c 40bf
000005e0: e365 75b3 ab8c 40bf 0000 0000 0000 0000
000005f0: 0000 0000 0000 0000 0000 0000 0000 0000
00000600: e365 75b3 ab8c 503f e365 75b3 ab8c 40bf
00000610: e365 75b3 ab8c 40bf 0000 0000 0000 0000
00000620: 0000 0000 0000 0000 0000 0000 0000 0000
00000630: e365 75b3 ab8c 503f e365 75b3 ab8c 40bf
00000640: e365 75b3 ab8c 40bf 0000 0000 0000 0000
00000650: 0000 0000 0000 0000 0000 0000 0000 0000
00000660: e365 75b3 ab8c 503f e365 75b3 ab8c 40bf
00000670: e365 75b3 ab8c 40bf 0000 0000 0000 0000
00000680: 0000 0000 0000 0000 0000 0000 0000 0000
00000690: e365 75b3 ab8c 503f e365 75b3 ab8c 40bf
000006a0: e365 75b3 ab8c 40bf 0000 0000 0000 0000
000006b0: 0000 0000 0000 0000 0000 0000 0000 0000
000006c0: e365 75b3 ab8c 503f e365 75b3 ab8c 40bf
000006d0: e365 75b3 ab8c 40bf 0000 0000 0000 0000
000006e0: 0000 0000 0000 0000 0000 0000 0000 0000
000006f0: e365 75b3 ab8c 503f e365 75b3 ab8c 40bf
00000700: e365 75b3 ab8c 40bf 0000 0000 0000 0000
00000710: 0000 0000 0000 0000 0000 0000 0000 0000
00000720: e365 75b3 ab8c 503f e365 75b3 ab8c 40bf
00000730: e365 75b3 ab8c 40bf 0000 0000 0000 0000
00000740: 0000 0000 0000 0000 0000 0000 0000 0000
00000750: e365 75b3 ab8c 503f e365 75b3 ab8c 40bf
00000760: e365 75b3 ab8c 40bf 0000 0000 0000 0000
00000770: 0000 0000 0000 0000 0000 0000 0000 0000
00000780: e365 75b3 ab8c 603f e365 75b3 ab8c 50bf
00000790: e365 75b3 ab8c 50bf 0000 0000 0000 0000
000007a0: 0000 0000 0000 0000 0000 0000 0000 0000
000007b0: e365 75b3 ab8c 603f e365 75b3 ab8c 50bf
000007c0: e365 75b3 ab8c 50bf 0000 0000 0000 0000
000007d0: 0000 0000 0000 0000 0000 0000 0000 0000
000007e0: e365 75b3 ab8c 603f e365 75b3 ab8c 50bf
000007f0: e365 75b3 ab8c 50bf 0000 0000 0000 0000

forces/T f8 [100, 20, 1]
300.0 310.5263157894737 321.05263157894734 331.57894736842104 342.10526315789474 352.63157894736844 363.1578947368421 373.6842105263158
384.2105263157895 394.7368421052631 405.2631578947368 415.7894736842105 426.3157894736842 436.8421052631579 447.36842105263156 457.89473684210526
468.42105263157896 478.9473684210526 489.4736842105263 500.0 303.030303030303 313.7692716640085 324.50824029771394 335.24720893141944
345.98617756512493 356.72514619883043 367.46411483253587 378.20308346624137 388.94205209994686 399.6810207336523 410.41998936735774 421.15895800106324
431.89792663476874 442.63689526847423 453.3758639021797 464.11483253588517 474.85380116959067 485.5927698032961 496.3317384370016 507.07070707070704
306.06060606060606 317.01222753854336 327.9638490164806 338.91547049441783 349.8670919723551 360.8187134502924 371.77033492822966 382.7219564061669
393.6735778841042 404.6251993620414 415.5768208399787 426.528442317916 437.48006379585325 448.43168527379055 459.3833067517278 470.3349282296651
481.2865497076024 492.23817118553956 503.18979266347685 514.1414141414141 309.09090909090907 320.25518341307816 331.4194577352472 342.5837320574162
353.7480063795853 364.9122807017544 376.07655502392345 387.2408293460925 398.4051036682616 409.5693779904306 420.73365231259965 431.89792663476874
443.06220095693783 454.22647527910686 465.3907496012759 476.555023923445 487.719298245614 498.88357256778306 510.04784688995215 521.2121212121212
312.1212121212121 323.49813928761296 334.8750664540138 346.2519936204147 357.6289207868155 369.0058479532164 380.3827751196172 391.75970228601807
403.13662945241896 414.51355661881973 425.8904837852206 437.26741095162146 448.64433811802235 460.0212652844232 471.398192450824 482.7751196172249
494.15204678362574 505.52897395002657 516.9059011164275 528.2828282828283 315.1515151515151 326.7410951621478 338.3306751727804 349.9202551834131
361.5098351940457 373.0994152046784 384.68899521531097 396.27857522594365 407.8681552365763 419.4577352472089 431.04731525784155 442.63689526847423
454.22647527910686 465.81605528973955 477.4056353003721 488.9952153110048 500.58479532163744 512.1743753322701 523.7639553429027 535.3535353535353
318.1818181818182 329.9840510366826 341.78628389154704 353.58851674641147 365.3907496012759 377.1929824561404 388.99521531100476 400.79744816586924
412.59968102073367 424.40191387559804 436.2041467304625 448.00637958532695 459.8086124401914 471.61084529505587 483.41307814992024 495.21531100478467
507.01754385964915 518.8197767145135 530.622009569378 542.4242424242424 321.2121212121212 333.2270069112175 345.24189261031364 357.25677830940987
369.2716640085061 381.2865497076024 393.30143540669854 405.31632110579477 417.331206804891 429.3460925039872 441.36097820308345 453.3758639021797
465.3907496012759 477.4056353003722 489.42052099946835 501.4354066985646 513.4502923976609 525.465178096757 537.4800637958533 549.4949494949495
324.24242424242425 336.4699627857523 348.69750132908024 360.92503987240826 373.1525784157363 385.38011695906437 397.60765550239233 409.83519404572036
422.0627325890484 434.29027113237635 446.51780967570437 458.74534821903245 470.9728867623605 483.2004253056885 495.42796384901646 507.6555023923445
519.8830409356725 532.1105794790005 544.3381180223286 556.5656565656566 327.27272727272725 339.7129186602871 352.1531100478469 364.5933014354067
377.03349282296654 389.47368421052636 401.9138755980861 414.35406698564594 426.79425837320576 439.23444976076553 451.67464114832535 464.11483253588517
476.555023923445 488.9952153110048 501.4354066985646 513.8755980861245 526.3157894736843 538.755980861244 551.1961722488038 563.6363636363636
330.3030303030303 342.95587453482193 355.6087187666135 368.2615629984051 380.91440723019673 393.5672514619883 406.22009569377985 418.8729399255715
431.5257841573631 444.17862838915465 456.8314726209463 469.4843168527379 482.1371610845295 494.7900053163211 507.4428495481127 520.0956937799043
532.7485380116959 545.4013822434874 558.054226475279 570.7070707070707 333.3333333333333 346.19883040935673 359.0643274853801 371.9298245614035
384.7953216374269 397.6608187134503 410.52631578947364 423.39181286549706 436.2573099415205 449.12280701754383 461.98830409356725 474.85380116959067
487.719298245614 500.58479532163744 513.4502923976609 526.3157894736842 539.1812865497076 552.046783625731 564.9122807017544 577.7777777777778
336.3636363636364 349.4417862838916 362.5199362041467 375.5980861244019 388.6762360446571 401.7543859649123 414.83253588516743 427.91068580542264
440.98883572567786 454.06698564593296 467.1451355661882 480.2232854864434 493.30143540669854 506.37958532695376 519.4577352472089 532.5358851674641
00000000: 0000 0000 00c0 7240 87f2 1aca 6b68 7340
00000010: 0de5 3594 d710 7440 94d7 505e 43b9 7440
00000020: 1bca 6b28 af61 7540 a2bc 86f2 1a0a 7640
00000030: 28af a1bc 86b2 7640 afa1 bc86 f25a 7740
00000040: 3694 d750 5e03 7840 bc86 f21a caab 7840
00000050: 4379 0de5 3554 7940 ca6b 28af a1fc 7940
00000060: 515e 4379 0da5 7a40 d850 5e43 794d 7b40
00000070: 5e43 790d e5f5 7b40 e535 94d7 509e 7c40
00000080: 6c28 afa1 bc46 7d40 f21a ca6b 28ef 7d40
00000090: 790d e535 9497 7e40 0000 0000 0040 7f40
000000a0: f0c1 071f 7cf0 7240 7fea cdef 4e9c 7340
000000b0: 0d13 94c0 2148 7440 9c3b 5a91 f4f3 7440
000000c0: 2b64 2062 c79f 7540 ba8c e632 9a4b 7640
000000d0: 48b5 ac03 6df7 7640 d7dd 72d4 3fa3 7740
000000e0: 6606 39a5 124f 7840 f42e ff75 e5fa 7840
000000f0: 8257 c546 b8a6 7940 1180 8b17 8b52 7a40
00000100: a0a8 51e8 5dfe 7a40 2fd1 17b9 30aa 7b40
00000110: bdf9 dd89 0356 7c40 4c22 a45a d601 7d40
00000120: db4a 6a2b a9ad 7d40 6973 30fc 7b59 7e40
00000130: f89b f6cc 4e05 7f40 86c4 bc9d 21b1 7f40
00000140: e183 0f3e f820 7340 78e2 8015 32d0 7340
00000150: 0e41 f2ec 6b7f 7440 a49f 63c4 a52e 7540
00000160: 3bfe d49b dfdd 7540 d25c 4673 198d 7640
00000170: 68bb b74a 533c 7740 fe19 2922 8deb 7740
00000180: 9578 9af9 c69a 7840 2bd7 0bd1 004a 7940
00000190: c235 7da8 3af9 7940 5994 ee7f 74a8 7a40
000001a0: eff2 5f57 ae57 7b40 8651 d12e e806 7c40
000001b0: 1cb0 4206 22b6 7c40 b30e b4dd 5b65 7d40
000001c0: 4a6d 25b5 9514 7e40 dfcb 968c cfc3 7e40
000001d0: 762a 0864 0973 7f40 86c4 bc9d 2111 8040
000001e0: d145 175d 7451 7340 70da 333b 1504 7440
000001f0: 0e6f 5019 b6b6 7440 ac03 6df7 5669 7540
00000200: 4b98 89d5 f71b 7640 ea2c a6b3 98ce 7640
00000210: 88c1 c291 3981 7740 2656 df6f da33 7840
00000220: c5ea fb4d 7be6 7840 637f 182c 1c99 7940
00000230: 0114 350a bd4b 7a40 a0a8 51e8 5dfe 7a40
00000240: 3f3d 6ec6 feb0 7b40 ddd1 8aa4 9f63 7c40
00000250: 7b66 a782 4016 7d40 1afb c360 e1c8 7d40
00000260: b88f e03e 827b 7e40 5624 fd1c 232e 7f40
00000270: f5b8 19fb c3e0 7f40 ca26 9b6c b249 8040
00000280: c207 1f7c f081 7340 68d2 e660 f837 7440
00000290: 0e9d ae45 00ee 7440 b567 762a 08a4 7540
000002a0: 5b32 3e0f 105a 7640 02fd 05f4 1710 7740
000002b0: a7c7 cdd8 1fc6 7740 4e92 95bd 277c 7840
000002c0: f55c 5da2 2f32 7940 9a27 2587 37e8 7940
000002d0: 41f2 ec6b 3f9e 7a40 e7bc b450 4754 7b40
000002e0: 8e87 7c35 4f0a 7c40 3452 441a 57c0 7c40
000002f0: da1c 0cff 5e76 7d40 81e7 d3e3 662c 7e40
00000300: 27b2 9bc8 6ee2 7e40 cd7c 63ad 7698 7f40
00000310: baa3 1549 3f27 8040 0d89 793b 4382 8040
00000320: b2c9 269b 6cb2 7340 61ca 9986 db6b 7440
00000330: 0ecb 0c72 4a25 7540 bdcb 7f5d b9de 7540
00000340: 6bcc f248 2898 7640 1acd 6534 9751 7740
00000350: c7cd d81f 060b 7840 76ce 4b0b 75c4 7840
00000360: 24cf bef6 e37d 7940 d2cf 31e2 5237 7a40
00000370: 80d0 a4cd c1f0 7a40 2fd1 17b9 30aa 7b40
00000380: ddd1 8aa4 9f63 7c40 8cd2 fd8f 0e1d 7d40
00000390: 39d3 707b 7dd6 7d40 e8d3 e366 ec8f 7e40
000003a0: 96d4 5652 5b49 7f40 a2ea e41e 6501 8040
000003b0: f96a 9e94 1c5e 8040 50eb 570a d4ba 8040
000003c0: a38b 2eba e8e2 7340 59c2 4cac be9f 7440
000003d0: 0ff9 6a9e 945c 7540 c52f 8990 6a19 7640
000003e0: 7b66 a782 40d6 7640 329d c574 1693 7740
000003f0: e7d3 e366 ec4f 7840 9e0a 0259 c20c 7940
00000400: 5441 204b 98c9 7940 0978 3e3d 6e86 7a40
00000410: c0ae 5c2f 4443 7b40 76e5 7a21 1a00 7c40
00000420: 2c1c 9913 f0bc 7c40 e352 b705 c679 7d40
00000430: 9889 d5f7 9b36 7e40 4ec0 f3e9 71f3 7e40
00000440: 05f7 11dc 47b0 7f40 dd16 18e7 8e36 8040
00000450: 3832 27e0 f994 8040 934d 36d9 64f3 8040
00000460: 934d 36d9 6413 7440 52ba ffd1 a1d3 7440
00000470: 0f27 c9ca de93 7540 cd93 92c3 1b54 7640
00000480: 8b00 5cbc 5814 7740 4a6d 25b5 95d4 7740
00000490: 07da eead d294 7840 c546 b8a6 0f55 7940
000004a0: 83b3 819f 4c15 7a40 4120 4b98 89d5 7a40
000004b0: ff8c 1491 c695 7b40 bdf9 dd89 0356 7c40
000004c0: 7b66 a782 4016 7d40 3ad3 707b 7dd6 7d40
000004d0: f73f 3a74 ba96 7e40 b5ac 036d f756 7f40
000004e0: ba8c e632 9a0b 8040 1843 4baf b86b 8040
000004f0: 78f9 af2b d7cb 8040 d7af 14a8 f52b 8140
00000500: 840f 3ef8 e043 7440 4ab2 b2f7 8407 7540
00000510: 0f55 27f7 28cb 7540 d5f7 9bf6 cc8e 7640
00000520: 9b9a 10f6 7052 7740 623d 85f5 1416 7840
00000530: 27e0 f9f4 b8d9 7840 ed82 6ef4 5c9d 7940
00000540: b325 e3f3 0061 7a40 78c8 57f3 a424 7b40
00000550: 3e6b ccf2 48e8 7b40 050e 41f2 ecab 7c40
00000560: cbb0 b5f1 906f 7d40 9153 2af1 3433 7e40
00000570: 56f6 9ef0 d8f6 7e40 1c99 13f0 7cba 7f40
00000580: f11d c477 103f 8040 546f 7e77 e2a0 8040
00000590: b7c0 3877 b402 8140 1a12 f376 8664 8140
000005a0: 74d1 4517 5d74 7440 42aa 651d 683b 7540
000005b0: 1083 8523 7302 7640 de5b a529 7ec9 7640
000005c0: ac34 c52f 8990 7740 7a0d e535 9457 7840
000005d0: 47e6 043c 9f1e 7940 15bf 2442 aae5 7940
000005e0: e397 4448 b5ac 7a40 b070 644e c073 7b40
000005f0: 7e49 8454 cb3a 7c40 4c22 a45a d601 7d40
00000600: 1afb c360 e1c8 7d40 e8d3 e366 ec8f 7e40
00000610: b5ac 036d f756 7f40 c2c2 9139 010f 8040
00000620: 29af a1bc 8672 8040 8f9b b13f 0cd6 8040
00000630: f687 c1c2 9139 8140 5d74 d145 179d 8140
00000640: 6593 4d36 d9a4 7440 3ba2 1843 4b6f 7540
00000650: 10b1 e34f bd39 7640 e6bf ae5c 2f04 7740
00000660: bcce 7969 a1ce 7740 91dd 4476 1399 7840
00000670: 66ec 0f83 8563 7940 3cfb da8f f72d 7a40
00000680: 120a a69c 69f8 7a40 e718 71a9 dbc2 7b40
00000690: bd27 3cb6 4d8d 7c40 9336 07c3 bf57 7d40
000006a0: 6945 d2cf 3122 7e40 3f54 9ddc a3ec 7e40
000006b0: 1463 68e9 15b7 7f40 f5b8 19fb c340 8040
000006c0: 6040 7f01 fda5 8040 cac7 e407 360b 8140
000006d0: 354f 4a0e 6f70 8140 a0d6 af14 a8d5 8140
000006e0: 5555 5555 55d5 7440 339a cb68 2ea3 7540
000006f0: 10df 417c 0771 7640 ee23 b88f e03e 7740
00000700: cc68 2ea3 b90c 7840 a9ad a4b6 92da 7840
00000710: 86f2 1aca 6ba8 7940 6437 91dd 4476 7a40
00000720: 427c 07f1 1d44 7b40 1fc1 7d04 f711 7c40
00000730: fd05 f417 d0df 7c40 db4a 6a2b a9ad 7d40
00000740: b88f e03e 827b 7e40 96d4 5652 5b49 7f40
00000750: ba8c e632 9a0b 8040 28af a1bc 8672 8040
00000760: 97d1 5c46 73d9 8040 06f4 17d0 5f40 8140
00000770: 7516 d359 4ca7 8140 e438 8ee3 380e 8240
00000780: 4617 5d74 d105 7540 2c92 7e8e 11d7 7540
00000790: 100d a0a8 51a8 7640 f687 c1c2 9179 7740
000007a0: dc02 e3dc d14a 7840 c17d 04f7 111c 7940
000007b0: a6f8 2511 52ed 7940 8c73 472b 92be 7a40
000007c0: 72ee 6845 d28f 7b40 5669 8a5f 1261 7c40
000007d0: 3ce4 ab79 5232 7d40 225f cd93 9203 7e40
000007e0: 07da eead d2d4 7e40 ed54 10c8 12a6 7f40
000007f0: e9e7 1871 a93b 8040 5ca5 297e 49a4 8040

forces/t f8 [100, 20, 1]
0.0 0.0 0.0 0.0 0.0 0.0 0.0 0.0
0.0 0.0 0.0 0.0 0.0 0.0 0.0 0.0
0.0 0.0 0.0 0.0 0.0010101010101010103 0.002090038465772515 0.00432457818052464 0.008948149398081643
0.01851495667507511 0.038310001926588386 0.07926868387388497 0.16401785244330516 0.3393755844731092 0.7022149456338996 1.4529796851390537 3.0064155976073934
6.220689000666931 12.871464502051866 26.632837360912685 55.10701799160116 114.02402946309984 235.93146152425467 488.1747715729043 1010.1010101010102
0.0020202020202020206 0.00418007693154503 0.00864915636104928 0.017896298796163286 0.03702991335015022 0.07662000385317677 0.15853736774776994 0.3280357048866103
0.6787511689462185 1.4044298912677993 2.9059593702781075 6.012831195214787 12.441378001333861 25.742929004103733 53.26567472182537 110.21403598320232
228.04805892619967 471.86292304850934 976.3495431458086 2020.2020202020203 0.0030303030303030307 0.006270115397317545 0.01297373454157392 0.026844448194244926
0.055544870025225325 0.11493000577976516 0.23780605162165488 0.49205355732991546 1.0181267534193277 2.106644836901699 4.358939055417161 9.01924679282218
18.662067002000793 38.6143935061556 79.89851208273805 165.32105397480348 342.0720883892995 707.794384572764 1464.5243147187127 3030.3030303030305
0.004040404040404041 0.00836015386309006 0.01729831272209856 0.03579259759232657 0.07405982670030044 0.15324000770635354 0.3170747354955399 0.6560714097732206
1.357502337892437 2.8088597825355985 5.811918740556215 12.025662390429574 24.882756002667723 51.485858008207465 106.53134944365074 220.42807196640464
456.09611785239935 943.7258460970187 1952.6990862916173 4040.4040404040406 0.005050505050505051 0.010450192328862575 0.0216228909026232 0.044740746990408205
0.09257478337537553 0.19155000963294191 0.3963434193694248 0.8200892622165258 1.696877922365546 3.511074728169498 7.264898425695268 15.032077988036967
31.103445003334652 64.35732251025932 133.1641868045634 275.53508995800576 570.1201473154991 1179.6573076212733 2440.873857864521 5050.50505050505
0.0060606060606060615 0.01254023079463509 0.02594746908314784 0.05368889638848985 0.11108974005045065 0.22986001155953031 0.47561210324330977 0.9841071146598309
2.0362535068386554 4.213289673803398 8.717878110834322 18.03849358564436 37.324134004001586 77.2287870123112 159.7970241654761 330.64210794960695
684.144176778599 1415.588769145528 2929.0486294374255 6060.606060606061 0.007070707070707071 0.014630269260407603 0.03027204726367248 0.06263704578657149
0.12960469672552574 0.2681700134861187 0.5548807871171947 1.1481249671031362 2.3756290913117644 4.915504619437296 10.170857795973374 21.044909183251754
43.544823004668515 90.10025151436305 186.42986152638878 385.7491259412081 798.1682062416987 1651.5202306697827 3417.22340101033 7070.707070707071
0.008080808080808083 0.01672030772618012 0.03459662544419712 0.07158519518465314 0.14811965340060088 0.3064800154127071 0.6341494709910798 1.3121428195464413
2.715004675784874 5.617719565071197 11.62383748111243 24.051324780859147 49.765512005335445 102.97171601641493 213.06269888730148 440.8561439328093
912.1922357047987 1887.4516921940374 3905.3981725832346 8080.808080808081 0.009090909090909092 0.018810346191952633 0.03892120362472176 0.08053334458273478
0.16663461007567598 0.34479001733929543 0.7134181548649646 1.4761606719897464 3.054380260257983 6.319934510705096 13.076817166251482 27.05774037846654
55.986201006002375 115.8431805184668 239.69553624821415 495.96316192441043 1026.2162651678984 2123.383153718292 4393.572944156138 9090.909090909092
0.010101010101010102 0.02090038465772515 0.0432457818052464 0.08948149398081641 0.18514956675075106 0.38310001926588383 0.7926868387388496 1.6401785244330516
3.393755844731092 7.022149456338996 14.529796851390536 30.064155976073934 62.206890006669305 128.71464502051865 266.3283736091268 551.0701799160115
1140.2402946309983 2359.3146152425466 4881.747715729042 10101.0101010101 0.011111111111111112 0.022990423123497663 0.047570359985771034 0.09842964337889805
0.20366452342582617 0.4214100211924722 0.8719555226127345 1.8041963768763567 3.733131429204201 7.7243644019728945 15.982776536529588 33.07057157368133
68.42757900733623 141.58610952257052 292.9612109700395 606.1771979076127 1254.2643240940981 2595.2460767668013 5369.922487301947 11111.111111111111
0.012121212121212123 0.02508046158927018 0.05189493816629568 0.1073777927769797 0.2221794801009013 0.45972002311906063 0.9512242064866195 1.9682142293196618
4.072507013677311 8.426579347606795 17.435756221668644 36.07698717128872 74.64826800800317 154.4575740246224 319.5940483309522 661.2842158992139
00000000: 0000 0000 0000 0000 0000 0000 0000 0000
00000010: 0000 0000 0000 0000 0000 0000 0000 0000
00000020: 0000 0000 0000 0000 0000 0000 0000 0000
00000030: 0000 0000 0000 0000 0000 0000 0000 0000
00000040: 0000 0000 0000 0000 0000 0000 0000 0000
00000050: 0000 0000 0000 0000 0000 0000 0000 0000
00000060: 0000 0000 0000 0000 0000 0000 0000 0000
00000070: 0000 0000 0000 0000 0000 0000 0000 0000
00000080: 0000 0000 0000 0000 0000 0000 0000 0000
00000090: 0000 0000 0000 0000 0000 0000 0000 0000
000000a0: e365 75b3 ab8c 503f 34b6 73db 201f 613f
000000b0: 5969 ab1d a6b6 713f 0224 3248 6853 823f
000000c0: 490e a0b5 95f5 923f 4ecf c45a 5e9d a33f
000000d0: 20d6 d5d4 f34a b43f 9121 1a78 89fe c43f
000000e0: 6cdd 175f 54b8 d53f 0f52 487a 8b78 e63f
000000f0: 37cb 56a0 673f f73f b043 ef9e 230d 0840
00000100: 39ce 214c fce1 1840 19e0 5f98 30be 2940
00000110: 93ce 18a1 01a2 3a40 5b01 fbc3 b28d 4b40
00000120: df89 dfb2 8981 5c40 ff04 6688 ce7d 6d40
00000130: 50de 46dd cb82 7e40 3c43 62de ce90 8f40
00000140: e365 75b3 ab8c 603f 34b6 73db 201f 713f
00000150: 5969 ab1d a6b6 813f 0224 3248 6853 923f
00000160: 490e a0b5 95f5 a23f 4ecf c45a 5e9d b33f
00000170: 20d6 d5d4 f34a c43f 9121 1a78 89fe d43f
00000180: 6cdd 175f 54b8 e53f 0f52 487a 8b78 f63f
00000190: 37cb 56a0 673f 0740 b043 ef9e 230d 1840
000001a0: 39ce 214c fce1 2840 19e0 5f98 30be 3940
000001b0: 93ce 18a1 01a2 4a40 5b01 fbc3 b28d 5b40
000001c0: df89 dfb2 8981 6c40 ff04 6688 ce7d 7d40
000001d0: 50de 46dd cb82 8e40 3c43 62de ce90 9f40
000001e0: d418 308d 01d3 683f 4e91 2d49 b1ae 793f
000001f0: 051e 812c f991 8a3f 0236 4b6c 1c7d 9b3f
00000200: 6d15 7090 6070 ac3f f536 2788 0d6c bd3f
00000210: 2fc1 40bf 6d70 ce3f 5932 2734 ce7d df3f
00000220: 11e6 5147 3f4a f03f 8b3d b69b 68da 0040
00000230: 6918 41b8 8d6f 1140 c472 33b7 da09 2240
00000240: ab5a 1939 7da9 3240 13e8 4772 a44e 4340
00000250: ee9a d238 81f9 5340 0441 fc12 46aa 6440
00000260: 67a7 2746 2761 7540 bf83 4ce6 5a1e 8640
00000270: bb26 f5e5 18e2 9640 6db2 c926 9bac a740
00000280: e365 75b3 ab8c 703f 34b6 73db 201f 813f
00000290: 5969 ab1d a6b6 913f 0224 3248 6853 a23f
000002a0: 490e a0b5 95f5 b23f 4ecf c45a 5e9d c33f
000002b0: 20d6 d5d4 f34a d43f 9121 1a78 89fe e43f
000002c0: 6cdd 175f 54b8 f53f 0f52 487a 8b78 0640
000002d0: 37cb 56a0 673f 1740 b043 ef9e 230d 2840
000002e0: 39ce 214c fce1 3840 19e0 5f98 30be 4940
000002f0: 93ce 18a1 01a2 5a40 5b01 fbc3 b28d 6b40
00000300: df89 dfb2 8981 7c40 ff04 6688 ce7d 8d40
00000310: 50de 46dd cb82 9e40 3c43 62de ce90 af40
00000320: 5bbf 52a0 d6af 743f c1a3 5012 e966 853f
00000330: af43 16a5 4f24 963f 01ad 3e5a 42e8 a63f
00000340: da11 0823 fbb2 b73f 2103 76f1 b584 c83f
00000350: a74b 0bca b05d d93f f5a9 20d6 2b3e ea3f
00000360: c6d4 dd76 6926 fb3f 9266 da58 ae16 0c40
00000370: 047e 6c88 410f 1d40 9c14 ab86 6c10 2e40
00000380: c741 2a5f 7b1a 3f40 0fec 3b5f de16 5040
00000390: 1b81 af04 41a5 6040 d8e0 7cba 8f38 7140
000003a0: 2bb6 cb0f f6d0 8140 1fc3 3f15 a16e 9240
000003b0: f14a 4c6a bf11 a340 056a fd4a 81ba b340
000003c0: d418 308d 01d3 783f 4e91 2d49 b1ae 893f
000003d0: 051e 812c f991 9a3f 0236 4b6c 1c7d ab3f
000003e0: 6d15 7090 6070 bc3f f536 2788 0d6c cd3f
000003f0: 2fc1 40bf 6d70 de3f 5932 2734 ce7d ef3f
00000400: 11e6 5147 3f4a 0040 8b3d b69b 68da 1040
00000410: 6918 41b8 8d6f 2140 c472 33b7 da09 3240
00000420: ab5a 1939 7da9 4240 13e8 4772 a44e 5340
00000430: ee9a d238 81f9 6340 0441 fc12 46aa 7440
00000440: 67a7 2746 2761 8540 bf83 4ce6 5a1e 9640
00000450: bb26 f5e5 18e2 a640 6db2 c926 9bac b740
00000460: 4c72 0d7a 2cf6 7c3f da7e 0a80 79f6 8d3f
00000470: 5bf8 ebb3 a2ff 9e3f 81df 2b3f fb08 b03f
00000480: 7f0c ecfe e296 c03f 6435 6c8f b229 d13f
00000490: 5b1b 3b5a 95c1 e13f 5fdd 1649 b85e f23f
000004a0: bee1 34d3 4901 0340 cc47 ff0a 7aa9 1340
000004b0: cff1 4bac 7a57 2440 3a5b 112b 7f0b 3540
000004c0: 7294 9dc2 bcc5 4540 15e4 5385 6a86 5640
000004d0: c0b4 f56c c14d 6740 2fa1 7b6b fc1b 7840
000004e0: a298 837c 58f1 8840 5f44 59b7 14ce 9940
000004f0: 8502 9e61 72b2 aa40 d4fa 9502 b59e bb40
00000500: e365 75b3 ab8c 803f 34b6 73db 201f 913f
00000510: 5969 ab1d a6b6 a13f 0224 3248 6853 b23f
00000520: 490e a0b5 95f5 c23f 4ecf c45a 5e9d d33f
00000530: 20d6 d5d4 f34a e43f 9121 1a78 89fe f43f
00000540: 6cdd 175f 54b8 0540 0f52 487a 8b78 1640
00000550: 37cb 56a0 673f 2740 b043 ef9e 230d 3840
00000560: 39ce 214c fce1 4840 19e0 5f98 30be 5940
00000570: 93ce 18a1 01a2 6a40 5b01 fbc3 b28d 7b40
00000580: df89 dfb2 8981 8c40 ff04 6688 ce7d 9d40
00000590: 50de 46dd cb82 ae40 3c43 62de ce90 bf40
000005a0: 9f12 e429 419e 823f fa2c e2f6 0443 933f
000005b0: 84d6 60e1 7aed a33f 8268 3851 d59d b43f
000005c0: 1210 546c 4854 c53f 3769 1d26 0a11 d63f
000005d0: e390 704f 52d4 e63f c365 1da7 5a9e f73f
000005e0: 19d9 faea 5e6f 0840 505c 91e9 9c47 1940
000005f0: 9da4 6194 5427 2a40 262c cd12 c80e 3b40
00000600: 0008 a6d5 3bfe 4b40 1cdc 6bab f6f5 5c40
00000610: 65e8 3bd5 41f6 6d40 8661 7a1c 69ff 7e40
00000620: 8dbd 9d74 dd08 9040 cf62 b92c c496 a040
00000630: 0cdd 77ac 9229 b140 d245 175d 74c1 c140
00000640: 5bbf 52a0 d6af 843f c1a3 5012 e966 953f
00000650: af43 16a5 4f24 a63f 01ad 3e5a 42e8 b63f
00000660: da11 0823 fbb2 c73f 2103 76f1 b584 d83f
00000670: a74b 0bca b05d e93f f5a9 20d6 2b3e fa3f
00000680: c6d4 dd76 6926 0b40 9266 da58 ae16 1c40
00000690: 047e 6c88 410f 2d40 9c14 ab86 6c10 3e40
000006a0: c741 2a5f 7b1a 4f40 0fec 3b5f de16 6040
000006b0: 1b81 af04 41a5 7040 d8e0 7cba 8f38 8140
000006c0: 2bb6 cb0f f6d0 9140 1fc3 3f15 a16e a240
000006d0: f14a 4c6a bf11 b340 056a fd4a 81ba c340
000006e0: 176c c116 6cc1 863f 871a bf2d cd8a 973f
000006f0: d9b0 cb68 245b a83f 81f1 4463 af32 b93f
00000700: a313 bcd9 ad11 ca3f 0a9d cebc 61f8 da3f
00000710: 6a06 a644 0fe7 eb3f 27ee 2305 fddd fc3f
00000720: 73d0 c002 74dd 0d40 d370 23c8 bfe5 1e40
00000730: 6a57 777c 2ef7 2f40 897e 447d 0889 4040
00000740: c73d 5774 5d1b 5140 11ea c168 c1b2 6140
00000750: 040e c11e 614f 7240 ee90 bce6 6af1 8240
00000760: c9ae f9aa 0e99 9340 6f23 c6fd 7d46 a440
00000770: d6b8 2028 ecf9 b440 398e e338 8eb3 c540
00000780: d418 308d 01d3 883f 4e91 2d49 b1ae 993f
00000790: 051e 812c f991 aa3f 0236 4b6c 1c7d bb3f
000007a0: 6d15 7090 6070 cc3f f536 2788 0d6c dd3f
000007b0: 2fc1 40bf 6d70 ee3f 5932 2734 ce7d ff3f
000007c0: 11e6 5147 3f4a 1040 8b3d b69b 68da 2040
000007d0: 6918 41b8 8d6f 3140 c472 33b7 da09 4240
000007e0: ab5a 1939 7da9 5240 13e8 4772 a44e 6340
000007f0: ee9a d238 81f9 7340 0441 fc12 46aa 8440

old_forces/E f8 [100, 20, 6]
0.0 0.0 0.0 0.0 0.0 0.0 0.0 0.0
0.0 0.0 0.0 0.0 0.0 0.0 0.0 0.0
0.0 0.0 0.0 0.0 0.0 0.0 0.0 0.0
0.0 0.0 0.0 0.0 0.0 0.0 0.0 0.0
0.0 0.0 0.0 0.0 0.0 0.0 0.0 0.0
0.0 0.0 0.0 0.0 0.0 0.0 0.0 0.0
0.0 0.0 0.0 0.0 0.0 0.0 0.0 0.0
0.0 0.0 0.0 0.0 0.0 0.0 0.0 0.0
0.0 0.0 0.0 0.0 0.0 0.0 0.0 0.0
0.0 0.0 0.0 0.0 0.0 0.0 0.0 0.0
0.0 0.0 0.0 0.0 0.0 0.0 0.0 0.0
0.0 0.0 0.0 0.0 0.0 0.0 0.0 0.0
0.0 0.0 0.0 0.0 0.0 0.0 0.0 0.0
0.0 0.0 0.0 0.0 0.0 0.0 0.0 0.0
0.0 0.0 0.0 0.0 0.0 0.0 0.0 0.0
0.0 0.0 0.0 0.0 0.0 0.0 0.0 0.0
0.0 0.0 0.0 0.0 0.0 0.0 0.0 0.0
0.0 0.0 0.0 0.0 0.0 0.0 0.0 0.0
0.0 0.0 0.0 0.0 0.0 0.0 0.0 0.0
0.0 0.0 0.0 0.0 0.0 0.0 0.0 0.0
0.0 0.0 0.0 0.0 0.0 0.0 0.0 0.0
0.0 0.0 0.0 0.0 0.0 0.0 0.0 0.0
0.0 0.0 0.0 0.0 0.0 0.0 0.0 0.0
0.0 0.0 0.0 0.0 0.0 0.0 0.0 0.0
0.0 0.0 0.0 0.0 0.0 0.0 0.0 0.0
0.0 0.0 0.0 0.0 0.0 0.0 0.0 0.0
0.0 0.0 0.0 0.0 0.0 0.0 0.0 0.0
0.0 0.0 0.0 0.0 0.0 0.0 0.0 0.0
0.0 0.0 0.0 0.0 0.0 0.0 0.0 0.0
0.0 0.0 0.0 0.0 0.0 0.0 0.0 0.0
0.0010101010101010103 -0.0005050505050505052 -0.0005050505050505052 0.0 0.0 0.0 0.0010101010101010103 -0.0005050505050505052
-0.0005050505050505052 0.0 0.0 0.0 0.0010101010101010103 -0.0005050505050505052 -0.0005050505050505052 0.0
00000000: 0000 0000 0000 0000 0000 0000 0000 0000
00000010: 0000 0000 0000 0000 0000 0000 0000 0000
00000020: 0000 0000 0000 0000 0000 0000 0000 0000
00000030: 0000 0000 0000 0000 0000 0000 0000 0000
00000040: 0000 0000 0000 0000 0000 0000 0000 0000
00000050: 0000 0000 0000 0000 0000 0000 0000 0000
00000060: 0000 0000 0000 0000 0000 0000 0000 0000
00000070: 0000 0000 0000 0000 0000 0000 0000 0000
00000080: 0000 0000 0000 0000 0000 0000 0000 0000
00000090: 0000 0000 0000 0000 0000 0000 0000 0000
000000a0: 0000 0000 0000 0000 0000 0000 0000 0000
000000b0: 0000 0000 0000 0000 0000 0000 0000 0000
000000c0: 0000 0000 0000 0000 0000 0000 0000 0000
000000d0: 0000 0000 0000 0000 0000 0000 0000 0000
000000e0: 0000 0000 0000 0000 0000 0000 0000 0000
000000f0: 0000 0000 0000 0000 0000 0000 0000 0000
00000100: 0000 0000 0000 0000 0000 0000 0000 0000
00000110: 0000 0000 0000 0000 0000 0000 0000 0000
00000120: 0000 0000 0000 0000 0000 0000 0000 0000
00000130: 0000 0000 0000 0000 0000 0000 0000 0000
00000140: 0000 0000 0000 0000 0000 0000 0000 0000
00000150: 0000 0000 0000 0000 0000 0000 0000 0000
00000160: 0000 0000 0000 0000 0000 0000 0000 0000
00000170: 0000 0000 0000 0000 0000 0000 0000 0000
00000180: 0000 0000 0000 0000 0000 0000 0000 0000
00000190: 0000 0000 0000 0000 0000 0000 0000 0000
000001a0: 0000 0000 0000 0000 0000 0000 0000 0000
000001b0: 0000 0000 0000 0000 0000 0000 0000 0000
000001c0: 0000 0000 0000 0000 0000 0000 0000 0000
000001d0: 0000 0000 0000 0000 0000 0000 0000 0000
000001e0: 0000 0000 0000 0000 0000 0000 0000 0000
000001f0: 0000 0000 0000 0000 0000 0000 0000 0000
00000200: 0000 0000 0000 0000 0000 0000 0000 0000
00000210: 0000 0000 0000 0000 0000 0000 0000 0000
00000220: 0000 0000 0000 0000 0000 0000 0000 0000
00000230: 0000 0000 0000 0000 0000 0000 0000 0000
00000240: 0000 0000 0000 0000 0000 0000 0000 0000
00000250: 0000 0000 0000 0000 0000 0000 0000 0000
00000260: 0000 0000 0000 0000 0000 0000 0000 0000
00000270: 0000 0000 0000 0000 0000 0000 0000 0000
00000280: 0000 0000 0000 0000 0000 0000 0000 0000
00000290: 0000 0000 0000 0000 0000 0000 0000 0000
000002a0: 0000 0000 0000 0000 0000 0000 0000 0000
000002b0: 0000 0000 0000 0000 0000 0000 0000 0000
000002c0: 0000 0000 0000 0000 0000 0000 0000 0000
000002d0: 0000 0000 0000 0000 0000 0000 0000 0000
000002e0: 0000 0000 0000 0000 0000 0000 0000 0000
000002f0: 0000 0000 0000 0000 0000 0000 0000 0000
00000300: 0000 0000 0000 0000 0000 0000 0000 0000
00000310: 0000 0000 0000 0000 0000 0000 0000 0000
00000320: 0000 0000 0000 0000 0000 0000 0000 0000
00000330: 0000 0000 0000 0000 0000 0000 0000 0000
00000340: 0000 0000 0000 0000 0000 0000 0000 0000
00000350: 0000 0000 0000 0000 0000 0000 0000 0000
00000360: 0000 0000 0000 0000 0000 0000 0000 0000
00000370: 0000 0000 0000 0000 0000 0000 0000 0000
00000380: 0000 0000 0000 0000 0000 0000 0000 0000
00000390: 0000 0000 0000 0000 0000 0000 0000 0000
000003a0: 0000 0000 0000 0000 0000 0000 0000 0000
000003b0: 0000 0000 0000 0000 0000 0000 0000 0000
000003c0: 0000 0000 0000 0000 0000 0000 0000 0000
000003d0: 0000 0000 0000 0000 0000 0000 0000 0000
000003e0: 0000 0000 0000 0000 0000 0000 0000 0000
000003f0: 0000 0000 0000 0000 0000 0000 0000 0000
00000400: 0000 0000 0000 0000 0000 0000 0000 0000
00000410: 0000 0000 0000 0000 0000 0000 0000 0000
00000420: 0000 0000 0000 0000 0000 0000 0000 0000
00000430: 0000 0000 0000 0000 0000 0000 0000 0000
00000440: 0000 0000 0000 0000 0000 0000 0000 0000
00000450: 0000 0000 0000 0000 0000 0000 0000 0000
00000460: 0000 0000 0000 0000 0000 0000 0000 0000
00000470: 0000 0000 0000 0000 0000 0000 0000 0000
00000480: 0000 0000 0000 0000 0000 0000 0000 0000
00000490: 0000 0000 0000 0000 0000 0000 0000 0000
000004a0: 0000 0000 0000 0000 0000 0000 0000 0000
000004b0: 0000 0000 0000 0000 0000 0000 0000 0000
000004c0: 0000 0000 0000 0000 0000 0000 0000 0000
000004d0: 0000 0000 0000 0000 0000 0000 0000 0000
000004e0: 0000 0000 0000 0000 0000 0000 0000 0000
000004f0: 0000 0000 0000 0000 0000 0000 0000 0000
00000500: 0000 0000 0000 0000 0000 0000 0000 0000
00000510: 0000 0000 0000 0000 0000 0000 0000 0000
00000520: 0000 0000 0000 0000 0000 0000 0000 0000
00000530: 0000 0000 0000 0000 0000 0000 0000 0000
00000540: 0000 0000 0000 0000 0000 0000 0000 0000
00000550: 0000 0000 0000 0000 0000 0000 0000 0000
00000560: 0000 0000 0000 0000 0000 0000 0000 0000
00000570: 0000 0000 0000 0000 0000 0000 0000 0000
00000580: 0000 0000 0000 0000 0000 0000 0000 0000
00000590: 0000 0000 0000 0000 0000 0000 0000 0000
000005a0: 0000 0000 0000 0000 0000 0000 0000 0000
000005b0: 0000 0000 0000 0000 0000 0000 0000 0000
000005c0: 0000 0000 0000 0000 0000 0000 0000 0000
000005d0: 0000 0000 0000 0000 0000 0000 0000 0000
000005e0: 0000 0000 0000 0000 0000 0000 0000 0000
000005f0: 0000 0000 0000 0000 0000 0000 0000 0000
00000600: 0000 0000 0000 0000 0000 0000 0000 0000
00000610: 0000 0000 0000 0000 0000 0000 0000 0000
00000620: 0000 0000 0000 0000 0000 0000 0000 0000
00000630: 0000 0000 0000 0000 0000 0000 0000 0000
00000640: 0000 0000 0000 0000 0000 0000 0000 0000
00000650: 0000 0000 0000 0000 0000 0000 0000 0000
00000660: 0000 0000 0000 0000 0000 0000 0000 0000
00000670: 0000 0000 0000 0000 0000 0000 0000 0000
00000680: 0000 0000 0000 0000 0000 0000 0000 0000
00000690: 0000 0000 0000 0000 0000 0000 0000 0000
000006a0: 0000 0000 0000 0000 0000 0000 0000 0000
000006b0: 0000 0000 0000 0000 0000 0000 0000 0000
000006c0: 0000 0000 0000 0000 0000 0000 0000 0000
000006d0: 0000 0000 0000 0000 0000 0000 0000 0000
000006e0: 0000 0000 0000 0000 0000 0000 0000 0000
000006f0: 0000 0000 0000 0000 0000 0000 0000 0000
00000700: 0000 0000 0000 0000 0000 0000 0000 0000
00000710: 0000 0000 0000 0000 0000 0000 0000 0000
00000720: 0000 0000 0000 0000 0000 0000 0000 0000
00000730: 0000 0000 0000 0000 0000 0000 0000 0000
00000740: 0000 0000 0000 0000 0000 0000 0000 0000
00000750: 0000 0000 0000 0000 0000 0000 0000 0000
00000760: 0000 0000 0000 0000 0000 0000 0000 0000
00000770: 0000 0000 0000 0000 0000 0000 0000 0000
00000780: e365 75b3 ab8c 503f e365 75b3 ab8c 40bf
00000790: e365 75b3 ab8c 40bf 0000 0000 0000 0000
000007a0: 0000 0000 0000 0000 0000 0000 0000 0000
000007b0: e365 75b3 ab8c 503f e365 75b3 ab8c 40bf
000007c0: e365 75b3 ab8c 40bf 0000 0000 0000 0000
000007d0: 0000 0000 0000 0000 0000 0000 0000 0000
000007e0: e365 75b3 ab8c 503f e365 75b3 ab8c 40bf
000007f0: e365 75b3 ab8c 40bf 0000 0000 0000 0000

old_forces/t f8 [100, 20, 1]
0.0 0.0 0.0 0.0 0.0 0.0 0.0 0.0
0.0 0.0 0.0 0.0 0.0 0.0 0.0 0.0
0.0 0.0 0.0 0.0 0.0 0.0 0.0 0.0
0.0 0.0 0.0 0.0 0.0 0.0 0.0 0.0
0.0 0.0 0.0 0.0 0.0 0.0 0.0 0.0
0.0010101010101010103 0.002090038465772515 0.00432457818052464 0.008948149398081643 0.01851495667507511 0.038310001926588386 0.07926868387388497 0.16401785244330516
0.3393755844731092 0.7022149456338996 1.4529796851390537 3.0064155976073934 6.220689000666931 12.871464502051866 26.632837360912685 55.10701799160116
114.02402946309984 235.93146152425467 488.1747715729043 1010.1010101010102 0.0020202020202020206 0.00418007693154503 0.00864915636104928 0.017896298796163286
0.03702991335015022 0.07662000385317677 0.15853736774776994 0.3280357048866103 0.6787511689462185 1.4044298912677993 2.9059593702781075 6.012831195214787
12.441378001333861 25.742929004103733 53.26567472182537 110.21403598320232 228.04805892619967 471.86292304850934 976.3495431458086 2020.2020202020203
0.0030303030303030307 0.006270115397317545 0.01297373454157392 0.026844448194244926 0.055544870025225325 0.11493000577976516 0.23780605162165488 0.49205355732991546
1.0181267534193277 2.106644836901699 4.358939055417161 9.01924679282218 18.662067002000793 38.6143935061556 79.89851208273805 165.32105397480348
342.0720883892995 707.794384572764 1464.5243147187127 3030.3030303030305 0.004040404040404041 0.00836015386309006 0.01729831272209856 0.03579259759232657
0.07405982670030044 0.15324000770635354 0.3170747354955399 0.6560714097732206 1.357502337892437 2.8088597825355985 5.811918740556215 12.025662390429574
24.882756002667723 51.485858008207465 106.53134944365074 220.42807196640464 456.09611785239935 943.7258460970187 1952.6990862916173 4040.4040404040406
0.005050505050505051 0.010450192328862575 0.0216228909026232 0.044740746990408205 0.09257478337537553 0.19155000963294191 0.3963434193694248 0.8200892622165258
1.696877922365546 3.511074728169498 7.264898425695268 15.032077988036967 31.103445003334652 64.35732251025932 133.1641868045634 275.53508995800576
570.1201473154991 1179.6573076212733 2440.873857864521 5050.50505050505 0.0060606060606060615 0.01254023079463509 0.02594746908314784 0.05368889638848985
0.11108974005045065 0.22986001155953031 0.47561210324330977 0.9841071146598309 2.0362535068386554 4.213289673803398 8.717878110834322 18.03849358564436
37.324134004001586 77.2287870123112 159.7970241654761 330.64210794960695 684.144176778599 1415.588769145528 2929.0486294374255 6060.606060606061
0.007070707070707071 0.014630269260407603 0.03027204726367248 0.06263704578657149 0.12960469672552574 0.2681700134861187 0.5548807871171947 1.1481249671031362
2.3756290913117644 4.915504619437296 10.170857795973374 21.044909183251754 43.544823004668515 90.10025151436305 186.42986152638878 385.7491259412081
798.1682062416987 1651.5202306697827 3417.22340101033 7070.707070707071 0.008080808080808083 0.01672030772618012 0.03459662544419712 0.07158519518465314
0.14811965340060088 0.3064800154127071 0.6341494709910798 1.3121428195464413 2.715004675784874 5.617719565071197 11.62383748111243 24.051324780859147
49.765512005335445 102.97171601641493 213.06269888730148 440.8561439328093 912.1922357047987 1887.4516921940374 3905.3981725832346 8080.808080808081
0.009090909090909092 0.018810346191952633 0.03892120362472176 0.08053334458273478 0.16663461007567598 0.34479001733929543 0.7134181548649646 1.4761606719897464
3.054380260257983 6.319934510705096 13.076817166251482 27.05774037846654 55.986201006002375 115.8431805184668 239.69553624821415 495.96316192441043
1026.2162651678984 2123.383153718292 4393.572944156138 9090.909090909092 0.010101010101010102 0.02090038465772515 0.0432457818052464 0.08948149398081641
0.18514956675075106 0.38310001926588383 0.7926868387388496 1.6401785244330516 3.393755844731092 7.022149456338996 14.529796851390536 30.064155976073934
62.206890006669305 128.71464502051865 266.3283736091268 551.0701799160115 1140.2402946309983 2359.3146152425466 4881.747715729042 10101.0101010101
0.011111111111111112 0.022990423123497663 0.047570359985771034 0.09842964337889805 0.20366452342582617 0.4214100211924722 0.8719555226127345 1.8041963768763567
3.733131429204201 7.7243644019728945 15.982776536529588 33.07057157368133 68.42757900733623 141.58610952257052 292.9612109700395 606.1771979076127
00000000: 0000 0000 0000 0000 0000 0000 0000 0000
00000010: 0000 0000 0000 0000 0000 0000 0000 0000
00000020: 0000 0000 0000 0000 0000 0000 0000 0000
00000030: 0000 0000 0000 0000 0000 0000 0000 0000
00000040: 0000 0000 0000 0000 0000 0000 0000 0000
00000050: 0000 0000 0000 0000 0000 0000 0000 0000
00000060: 0000 0000 0000 0000 0000 0000 0000 0000
00000070: 0000 0000 0000 0000 0000 0000 0000 0000
00000080: 0000 0000 0000 0000 0000 0000 0000 0000
00000090: 0000 0000 0000 0000 0000 0000 0000 0000
000000a0: 0000 0000 0000 0000 0000 0000 0000 0000
000000b0: 0000 0000 0000 0000 0000 0000 0000 0000
000000c0: 0000 0000 0000 0000 0000 0000 0000 0000
000000d0: 0000 0000 0000 0000 0000 0000 0000 0000
000000e0: 0000 0000 0000 0000 0000 0000 0000 0000
000000f0: 0000 0000 0000 0000 0000 0000 0000 0000
00000100: 0000 0000 0000 0000 0000 0000 0000 0000
00000110: 0000 0000 0000 0000 0000 0000 0000 0000
00000120: 0000 0000 0000 0000 0000 0000 0000 0000
00000130: 0000 0000 0000 0000 0000 0000 0000 0000
00000140: e365 75b3 ab8c 503f 34b6 73db 201f 613f
00000150: 5969 ab1d a6b6 713f 0224 3248 6853 823f
00000160: 490e a0b5 95f5 923f 4ecf c45a 5e9d a33f
00000170: 20d6 d5d4 f34a b43f 9121 1a78 89fe c43f
00000180: 6cdd 175f 54b8 d53f 0f52 487a 8b78 e63f
00000190: 37cb 56a0 673f f73f b043 ef9e 230d 0840
000001a0: 39ce 214c fce1 1840 19e0 5f98 30be 2940
000001b0: 93ce 18a1 01a2 3a40 5b01 fbc3 b28d 4b40
000001c0: df89 dfb2 8981 5c40 ff04 6688 ce7d 6d40
000001d0: 50de 46dd cb82 7e40 3c43 62de ce90 8f40
000001e0: e365 75b3 ab8c 603f 34b6 73db 201f 713f
000001f0: 5969 ab1d a6b6 813f 0224 3248 6853 923f
00000200: 490e a0b5 95f5 a23f 4ecf c45a 5e9d b33f
00000210: 20d6 d5d4 f34a c43f 9121 1a78 89fe d43f
00000220: 6cdd 175f 54b8 e53f 0f52 487a 8b78 f63f
00000230: 37cb 56a0 673f 0740 b043 ef9e 230d 1840
00000240: 39ce 214c fce1 2840 19e0 5f98 30be 3940
00000250: 93ce 18a1 01a2 4a40 5b01 fbc3 b28d 5b40
00000260: df89 dfb2 8981 6c40 ff04 6688 ce7d 7d40
00000270: 50de 46dd cb82 8e40 3c43 62de ce90 9f40
00000280: d418 308d 01d3 683f 4e91 2d49 b1ae 793f
00000290: 051e 812c f991 8a3f 0236 4b6c 1c7d 9b3f
000002a0: 6d15 7090 6070 ac3f f536 2788 0d6c bd3f
000002b0: 2fc1 40bf 6d70 ce3f 5932 2734 ce7d df3f
000002c0: 11e6 5147 3f4a f03f 8b3d b69b 68da 0040
000002d0: 6918 41b8 8d6f 1140 c472 33b7 da09 2240
000002e0: ab5a 1939 7da9 3240 13e8 4772 a44e 4340
000002f0: ee9a d238 81f9 5340 0441 fc12 46aa 6440
00000300: 67a7 2746 2761 7540 bf83 4ce6 5a1e 8640
00000310: bb26 f5e5 18e2 9640 6db2 c926 9bac a740
00000320: e365 75b3 ab8c 703f 34b6 73db 201f 813f
00000330: 5969 ab1d a6b6 913f 0224 3248 6853 a23f
00000340: 490e a0b5 95f5 b23f 4ecf c45a 5e9d c33f
00000350: 20d6 d5d4 f34a d43f 9121 1a78 89fe e43f
00000360: 6cdd 175f 54b8 f53f 0f52 487a 8b78 0640
00000370: 37cb 56a0 673f 1740 b043 ef9e 230d 2840
00000380: 39ce 214c fce1 3840 19e0 5f98 30be 4940
00000390: 93ce 18a1 01a2 5a40 5b01 fbc3 b28d 6b40
000003a0: df89 dfb2 8981 7c40 ff04 6688 ce7d 8d40
000003b0: 50de 46dd cb82 9e40 3c43 62de ce90 af40
000003c0: 5bbf 52a0 d6af 743f c1a3 5012 e966 853f
000003d0: af43 16a5 4f24 963f 01ad 3e5a 42e8 a63f
000003e0: da11 0823 fbb2 b73f 2103 76f1 b584 c83f
000003f0: a74b 0bca b05d d93f f5a9 20d6 2b3e ea3f
00000400: c6d4 dd76 6926 fb3f 9266 da58 ae16 0c40
00000410: 047e 6c88 410f 1d40 9c14 ab86 6c10 2e40
00000420: c741 2a5f 7b1a 3f40 0fec 3b5f de16 5040
00000430: 1b81 af04 41a5 6040 d8e0 7cba 8f38 7140
00000440: 2bb6 cb0f f6d0 8140 1fc3 3f15 a16e 9240
00000450: f14a 4c6a bf11 a340 056a fd4a 81ba b340
00000460: d418 308d 01d3 783f 4e91 2d49 b1ae 893f
00000470: 051e 812c f991 9a3f 0236 4b6c 1c7d ab3f
00000480: 6d15 7090 6070 bc3f f536 2788 0d6c cd3f
00000490: 2fc1 40bf 6d70 de3f 5932 2734 ce7d ef3f
000004a0: 11e6 5147 3f4a 0040 8b3d b69b 68da 1040
000004b0: 6918 41b8 8d6f 2140 c472 33b7 da09 3240
000004c0: ab5a 1939 7da9 4240 13e8 4772 a44e 5340
000004d0: ee9a d238 81f9 6340 0441 fc12 46aa 7440
000004e0: 67a7 2746 2761 8540 bf83 4ce6 5a1e 9640
000004f0: bb26 f5e5 18e2 a640 6db2 c926 9bac b740
00000500: 4c72 0d7a 2cf6 7c3f da7e 0a80 79f6 8d3f
00000510: 5bf8 ebb3 a2ff 9e3f 81df 2b3f fb08 b03f
00000520: 7f0c ecfe e296 c03f 6435 6c8f b229 d13f
00000530: 5b1b 3b5a 95c1 e13f 5fdd 1649 b85e f23f
00000540: bee1 34d3 4901 0340 cc47 ff0a 7aa9 1340
00000550: cff1 4bac 7a57 2440 3a5b 112b 7f0b 3540
00000560: 7294 9dc2 bcc5 4540 15e4 5385 6a86 5640
00000570: c0b4 f56c c14d 6740 2fa1 7b6b fc1b 7840
00000580: a298 837c 58f1 8840 5f44 59b7 14ce 9940
00000590: 8502 9e61 72b2 aa40 d4fa 9502 b59e bb40
000005a0: e365 75b3 ab8c 803f 34b6 73db 201f 913f
000005b0: 5969 ab1d a6b6 a13f 0224 3248 6853 b23f
000005c0: 490e a0b5 95f5 c23f 4ecf c45a 5e9d d33f
000005d0: 20d6 d5d4 f34a e43f 9121 1a78 89fe f43f
000005e0: 6cdd 175f 54b8 0540 0f52 487a 8b78 1640
000005f0: 37cb 56a0 673f 2740 b043 ef9e 230d 3840
00000600: 39ce 214c fce1 4840 19e0 5f98 30be 5940
00000610: 93ce 18a1 01a2 6a40 5b01 fbc3 b28d 7b40
00000620: df89 dfb2 8981 8c40 ff04 6688 ce7d 9d40
00000630: 50de 46dd cb82 ae40 3c43 62de ce90 bf40
00000640: 9f12 e429 419e 823f fa2c e2f6 0443 933f
00000650: 84d6 60e1 7aed a33f 8268 3851 d59d b43f
00000660: 1210 546c 4854 c53f 3769 1d26 0a11 d63f
00000670: e390 704f 52d4 e63f c365 1da7 5a9e f73f
00000680: 19d9 faea 5e6f 0840 505c 91e9 9c47 1940
00000690: 9da4 6194 5427 2a40 262c cd12 c80e 3b40
000006a0: 0008 a6d5 3bfe 4b40 1cdc 6bab f6f5 5c40
000006b0: 65e8 3bd5 41f6 6d40 8661 7a1c 69ff 7e40
000006c0: 8dbd 9d74 dd08 9040 cf62 b92c c496 a040
000006d0: 0cdd 77ac 9229 b140 d245 175d 74c1 c140
000006e0: 5bbf 52a0 d6af 843f c1a3 5012 e966 953f
000006f0: af43 16a5 4f24 a63f 01ad 3e5a 42e8 b63f
00000700: da11 0823 fbb2 c73f 2103 76f1 b584 d83f
00000710: a74b 0bca b05d e93f f5a9 20d6 2b3e fa3f
00000720: c6d4 dd76 6926 0b40 9266 da58 ae16 1c40
00000730: 047e 6c88 410f 2d40 9c14 ab86 6c10 3e40
00000740: c741 2a5f 7b1a 4f40 0fec 3b5f de16 6040
00000750: 1b81 af04 41a5 7040 d8e0 7cba 8f38 8140
00000760: 2bb6 cb0f f6d0 9140 1fc3 3f15 a16e a240
00000770: f14a 4c6a bf11 b340 056a fd4a 81ba c340
00000780: 176c c116 6cc1 863f 871a bf2d cd8a 973f
00000790: d9b0 cb68 245b a83f 81f1 4463 af32 b93f
000007a0: a313 bcd9 ad11 ca3f 0a9d cebc 61f8 da3f
000007b0: 6a06 a644 0fe7 eb3f 27ee 2305 fddd fc3f
000007c0: 73d0 c002 74dd 0d40 d370 23c8 bfe5 1e40
000007d0: 6a57 777c 2ef7 2f40 897e 447d 0889 4040
000007e0: c73d 5774 5d1b 5140 11ea c168 c1b2 6140
000007f0: 040e c11e 614f 7240 ee90 bce6 6af1 8240
